…
2022-03-15 12:50:20.943397: I tensorflow/core/platform/cpu_feature_guard.cc:151] This TensorFlow binary is optimized with oneAPI Deep Neural Network Library (oneDNN) to use the following CPU instructions in performance-critical operations:  AVX2 AVX512F FMA
To enable them in other operations, rebuild TensorFlow with the appropriate compiler flags.
Brain scans: 4
Total no. of rows: 1312
Field names are:Filename, Recognizable-Facial-Feature, Brain-Feature-Loss
Model: "3dcnn"
_________________________________________________________________
 Layer (type)                Output Shape              Param #   
=================================================================
 input_1 (InputLayer)        [(None, 128, 128, 64, 1)  0         
                             ]                                   
                                                                 
 conv3d (Conv3D)             (None, 126, 126, 62, 64)  1792      
                                                                 
 max_pooling3d (MaxPooling3D  (None, 63, 63, 31, 64)   0         
 )                                                               
                                                                 
 batch_normalization (BatchN  (None, 63, 63, 31, 64)   256       
 ormalization)                                                   
                                                                 
 conv3d_1 (Conv3D)           (None, 61, 61, 29, 64)    110656    
                                                                 
 max_pooling3d_1 (MaxPooling  (None, 30, 30, 14, 64)   0         
 3D)                                                             
                                                                 
 batch_normalization_1 (Batc  (None, 30, 30, 14, 64)   256       
 hNormalization)                                                 
                                                                 
 conv3d_2 (Conv3D)           (None, 28, 28, 12, 128)   221312    
                                                                 
 max_pooling3d_2 (MaxPooling  (None, 14, 14, 6, 128)   0         
 3D)                                                             
                                                                 
 batch_normalization_2 (Batc  (None, 14, 14, 6, 128)   512       
 hNormalization)                                                 
                                                                 
 conv3d_3 (Conv3D)           (None, 12, 12, 4, 256)    884992    
                                                                 
 max_pooling3d_3 (MaxPooling  (None, 6, 6, 2, 256)     0         
 3D)                                                             
                                                                 
 batch_normalization_3 (Batc  (None, 6, 6, 2, 256)     1024      
 hNormalization)                                                 
                                                                 
 global_average_pooling3d (G  (None, 256)              0         
 lobalAveragePooling3D)                                          
                                                                 
 dense (Dense)               (None, 512)               131584    
                                                                 
 dropout (Dropout)           (None, 512)               0         
                                                                 
 dense_1 (Dense)             (None, 1)                 513       
                                                                 
=================================================================
Total params: 1,352,897
Trainable params: 1,351,873
Non-trainable params: 1,024
_________________________________________________________________
Epoch 1/100
  1/367 [..............................] - ETA: 1:27:54 - loss: 0.7228 - acc: 0.5000
…
