…
(None, 64, 64, 32, 64)
(None, 64, 64, 32, 64)
(None, 32, 32, 16, 64)
(None, 32, 32, 16, 128)
(None, 16, 16, 8, 128)
(None, 16, 16, 8, 256)
(None, 8, 8, 4, 256)
Decoders
(None, 8, 8, 4, 256)
(None, 16, 16, 8, 256)
(None, 16, 16, 8, 128)
(None, 32, 32, 16, 128)
(None, 32, 32, 16, 64)
(None, 64, 64, 32, 64)
(None, 64, 64, 32, 64)
(None, 128, 128, 64, 64)
(None, 128, 128, 64, 1)
Model: "3dcnn"
_________________________________________________________________
 Layer (type)                Output Shape              Param #   
=================================================================
 input_1 (InputLayer)        [(None, 128, 128, 64, 1)  0         
                             ]                                   
                                                                 
 conv3d (Conv3D)             (None, 128, 128, 64, 64)  1792      
                                                                 
 max_pooling3d (MaxPooling3D  (None, 64, 64, 32, 64)   0         
 )                                                               
                                                                 
 conv3d_1 (Conv3D)           (None, 64, 64, 32, 64)    110656    
                                                                 
 max_pooling3d_1 (MaxPooling  (None, 32, 32, 16, 64)   0         
 3D)                                                             
                                                                 
 conv3d_2 (Conv3D)           (None, 32, 32, 16, 128)   221312    
                                                                 
 max_pooling3d_2 (MaxPooling  (None, 16, 16, 8, 128)   0         
 3D)                                                             
                                                                 
 conv3d_3 (Conv3D)           (None, 16, 16, 8, 256)    884992    
                                                                 
 max_pooling3d_3 (MaxPooling  (None, 8, 8, 4, 256)     0         
 3D)                                                             
                                                                 
 conv3d_4 (Conv3D)           (None, 8, 8, 4, 256)      1769728   
                                                                 
 up_sampling3d (UpSampling3D  (None, 16, 16, 8, 256)   0         
 )                                                               
                                                                 
 conv3d_5 (Conv3D)           (None, 16, 16, 8, 128)    884864    
                                                                 
 up_sampling3d_1 (UpSampling  (None, 32, 32, 16, 128)  0         
 3D)                                                             
                                                                 
 conv3d_6 (Conv3D)           (None, 32, 32, 16, 64)    221248    
                                                                 
 up_sampling3d_2 (UpSampling  (None, 64, 64, 32, 64)   0         
 3D)                                                             
                                                                 
 conv3d_7 (Conv3D)           (None, 64, 64, 32, 64)    110656    
                                                                 
 up_sampling3d_3 (UpSampling  (None, 128, 128, 64, 64)  0        
 3D)                                                             
                                                                 
 conv3d_8 (Conv3D)           (None, 128, 128, 64, 1)   1729      
                                                                 
=================================================================
Total params: 4,206,977
Trainable params: 4,206,977
Non-trainable params: 0
_________________________________________________________________
Epoch 1/100
  1/277 [..............................] - ETA: 1:54:49 - loss: 2.9762 - acc: 0.0886
…
